mon_modele.pth (torch, 249717 bytes, 10 tensors)

conv1.weight f4 [6, 1, 3, 3]
000000 e8 43 95 be 40 30 bc bd 70 76 f6 3c a4 cc f3 3d
       -0.2915337 -0.091888905 0.030085772 0.119042665
000010 00 49 e4 bc 36 1c 41 3e a8 fe 40 bd 30 3c 65 be
       -0.02786684 0.18858418 -0.04711786 -0.22386241
000020 36 88 99 be 73 a0 4c be da a7 49 3e 00 6d e5 3d
       -0.29986733 -0.19983082 0.19692937 0.11202431
000030 68 df 65 bd 7a 07 39 3e 13 a6 02 be f0 31 30 be
       -0.05612126 0.18069258 -0.12758665 -0.1720655
000040 8c c5 f0 3d 80 aa 45 be fa a0 9b be 6c 69 99 be
       0.11756429 -0.19303322 -0.30396253 -0.29963243
000050 65 a5 9a 3e 6b 15 26 be 22 c0 8c be 84 17 e1 3d
       0.3020431 -0.16219108 -0.27490336 0.109908134
000060 33 2e 89 3e d2 07 25 3e bb f7 11 be 86 c7 30 3e
       0.2679306 0.16116264 -0.14254658 0.17263612
000070 b3 10 6a be 48 8b a1 be 00 93 b3 bb 34 52 92 be
       -0.22857933 -0.31551576 -0.0054801702 -0.2857834
000080 f0 3f 09 3e ee 65 05 be 5e fc 3a be d4 1c a4 be
       0.13403296 -0.13027164 -0.18260333 -0.32053244
000090 87 77 9c be 50 e2 a9 be 02 b6 65 3e f6 36 34 3e
       -0.30559942 -0.33180475 0.22432712 0.17599091
0000a0 80 40 8d bd 1c 56 dd 3d ae c1 20 be 3b d2 1d be
       -0.06897068 0.1080744 -0.15698883 -0.15412228
0000b0 28 38 1d be 23 c1 96 be 1b 69 a0 3e d2 8e a6 be
       -0.15353453 -0.29444227 0.3133019 -0.32530838
0000c0 db 1f 11 be 7a 37 8d be b0 4d f8 3c 76 fb cb bd
       -0.14172308 -0.27581388 0.030310482 -0.09960072
0000d0 38 e9 08 bd cc 7f b9 3d
       -0.03342554 0.090575784

conv1.bias f4 [6]
000000 c0 18 e3 bb a0 1c db 3d 6a 3a 34 3e c2 3f 3e 3e
       -0.0069304407 0.10698819 0.17600408 0.18579009
000010 45 38 8a 3e 50 72 87 3d
       0.26996055 0.066136

conv2.weight f4 [16, 6, 3, 3]
000000 50 9b 22 3d 48 65 09 3d 5a 98 83 3d 30 7e 2f bc
       0.0396989 0.033543855 0.06425543 -0.010711238
000010 75 68 05 be 70 51 2a bc 6e fa 06 3e c2 af b7 3d
       -0.13028128 -0.010395393 0.13181469 0.0896907
000020 28 11 5e bd cc 94 30 3d 00 20 63 b8 38 c2 dd 3d
       -0.05421558 0.043110654 -5.415082e-05 0.1082806
000030 ca 6f e6 3d c1 6e 80 bd 4c 15 3c 3d 8c d1 8a bd
       0.11251791 -0.06271125 0.045918748 -0.06778249
000040 0c ef 05 3e 00 d9 e0 ba fa c3 98 3d 24 5e 7c 3d
       0.1307947 -0.0017154515 0.074592546 0.061613217
000050 50 57 9e 3d de c6 2a bd d8 40 27 3d 9a 70 98 3d
       0.07731497 -0.04169356 0.040833324 0.07443352
000060 a1 26 a5 bd a4 82 68 3d 24 49 71 bd 9c 2c fa 3d
       -0.080640085 0.056765214 -0.058907643 0.1221554
000070 dc 74 b2 bd 48 10 ac 3c bc d1 0f bd 18 bf 94 3c
       -0.087136954 0.021003857 -0.035112128 0.018157527
000080 d8 2e 0f 3d 20 dc e8 3c 32 8b 98 bd 58 ad d4 3c
       0.034956783 0.028425276 -0.074484244 0.025961563
000090 da f2 08 be 0a 80 cd bd b8 d6 a7 3d d8 85 45 bc
       -0.1337389 -0.10034187 0.08195251 -0.012055837
0000a0 b4 92 d0 3d 18 3d 0b 3e 88 c2 19 3d dc c4 bd 3d
       0.101842314 0.13597524 0.037539035 0.092660636
0000b0 e4 4b 39 3d 4c 54 4a 3d c0 8a 54 3c 5a be 07 3e
       0.04523839 0.049396798 0.012972534 0.13256207
0000c0 06 0f ec bd 20 72 bb bd fa 94 09 3e 23 fb d0 bd
       -0.11526303 -0.09152627 0.13435736 -0.102041505
0000d0 08 61 bb 3d ae 3e e9 3d d4 f7 5c 3d e8 3f 22 3d
       0.091493666 0.11388908 0.053947285 0.039611727
0000e0 ce e5 ce bd c0 c6 7d 3b 40 2c b3 3d 4c 7d 09 bd
       -0.101024255 0.00387232 0.087486744 -0.033566758
0000f0 60 19 ac 3d 7c 0b 1e bd 9e 6d b6 3d a8 58 f1 bd
       0.084032774 -0.03858517 0.089076266 -0.11784488
000100 00 78 bb 3d 54 96 02 bd bc 49 c4 bd f2 08 a3 3d
       0.091537476 -0.031881645 -0.09584376 0.079606906
000110 f0 8d 2a bc da f6 9b 3d 3c 94 19 3d b4 8a ae 3d
       -0.010409817 0.076154426 0.037494883 0.08522549
000120 f4 79 70 bd 98 a8 ce 3d f0 cd ab 3c 9f 8e e5 bd
       -0.058710054 0.100907505 0.020972222 -0.112088434
000130 f4 51 cf bc e0 db b2 bb e0 31 ef 3d 40 d2 a0 bc
       -0.025307633 -0.00545834 0.11679435 -0.019631505
000140 28 7d 05 3e 1c 49 dd 3d 24 11 db bc 54 31 07 3e
       0.13036025 0.1080496 -0.026741572 0.13202411
000150 ac 13 88 3d d7 4e e2 bd a8 ab d4 bc 42 76 93 3d
       0.06644377 -0.11050194 -0.025960758 0.0720029
000160 da 2b 0c bd 94 fd 91 3d a8 8a 2e bd 80 ab d7 3b
       -0.034221508 0.07128444 -0.0426127 0.0065817237
000170 fa 22 72 bd 80 56 d8 3d cd f8 92 bd 06 3c 01 be
       -0.059115387 0.105633736 -0.07176361 -0.12620553
000180 80 1e c8 3d f8 ab 49 bd be 5d c4 bd 17 54 d8 bd
       0.097714424 -0.049236268 -0.095881924 -0.10562914
000190 dc 16 37 3d 20 00 d2 3d 10 d1 52 3d ee 02 8b bd
       0.044699535 0.1025393 0.05146891 -0.06787668
0001a0 30 2c 83 3d c5 59 90 bd aa a9 6f bd 00 f9 21 bb
       0.064049125 -0.07048372 -0.058511414 -0.0024715066
0001b0 e0 96 4f bd 24 7e 05 3e f3 90 f8 bd 7e 66 08 3e
       -0.050680995 0.130364 -0.12137022 0.13320348
0001c0 12 35 00 bd 74 b3 bf bd 60 e7 f4 3d a4 86 f8 bd
       -0.03130061 -0.093604 0.11958194 -0.12135056
0001d0 1e 89 00 bd 64 a1 6a 3d 36 fc 87 3d 44 0e ae bc
       -0.031380765 0.05728282 0.06639902 -0.021247037
0001e0 42 ce 80 bd 96 4d 05 be ba 43 a7 3d a6 2a 08 3e
       -0.062893406 -0.13017878 0.08167215 0.13297519
0001f0 60 50 a9 bc ba 54 9c 3d d0 b1 bd 3c 08 c5 16 3d
       -0.020668209 0.07633348 0.023156077 0.036808997
000200 48 d3 8f 3c 70 75 96 3d 24 e4 73 3d d0 c1 6d 3d
       0.017556801 0.07346618 0.059543744 0.058046162
000210 38 5b 00 3e 00 b3 d7 bb 90 e9 d1 3c 70 0c f1 bc
       0.12534797 -0.0065826178 0.025624067 -0.029424876
000220 04 da 09 3e 99 e7 d7 bd 36 25 cc 3d 98 e5 86 3c
       0.13462073 -0.105422206 0.09968035 0.0164669
000230 a0 4a e6 bc 04 0b 41 bd b6 77 35 bd ac e1 cd 3d
       -0.028111756 -0.047129646 -0.04430362 0.10052809
000240 ee 8e 8b 3d 4e fe c0 bd f8 f5 5b bc e0 71 19 bc
       0.06814371 -0.09423505 -0.013425343 -0.009365529
000250 40 33 e1 3d c4 97 c0 3d 66 4b 00 3e 1c fe a1 3d
       0.10996103 0.09403947 0.12528762 0.07909796
000260 40 a8 6d 3c 24 3c 44 3d f0 b1 13 3c bb 46 01 be
       0.014505446 0.047908917 0.009014592 -0.12624638
000270 f6 ad df bd a8 15 fd 3c 9c 32 69 3d d0 6f ab 3d
       -0.10921852 0.030894116 0.05693303 0.08370936
000280 36 3b 83 3d 98 c1 f5 3c b5 2a 8b bd 46 7a b5 3d
       0.06407778 0.02999954 -0.06795255 0.088612124
000290 50 cd 01 3c 44 84 bc 3d 30 92 df 3c 30 4a dc bd
       0.0079224855 0.09204915 0.027291387 -0.10756338
0002a0 53 3c 07 be a0 79 2e 3d 8c c0 ac bc 2a 2c e3 3d
       -0.13206606 0.04259646 -0.021087907 0.11092408
0002b0 92 e1 c8 3d f8 9a 85 3c 11 e3 fe bd a8 22 f2 3c
       0.09808649 0.016309246 -0.12445653 0.029557541
0002c0 30 65 5c 3c e1 d2 ed bd 45 15 03 be 72 cc 00 3e
       0.013451859 -0.116124876 -0.12801082 0.1257799
0002d0 58 f2 03 3e ac 59 f2 3d a5 52 8c bd 3a b0 8f bd
       0.12885416 0.1183351 -0.06851701 -0.070160344
0002e0 88 f4 04 bd 6c 5b d4 bd 80 6d 6a 3d 54 e2 42 bd
       -0.032459766 -0.10369 0.057233334 -0.047579125
0002f0 9c 63 5b 3d 2a a7 cd bd f8 d0 d5 3c fe a4 e0 3d
       0.05356179 -0.1004165 0.02610062 0.1096897
000300 c4 c0 8a 3d 0c d8 58 3d 78 c0 55 3d b0 e8 4f 3c
       0.067750484 0.052940413 0.052185506 0.012689754
000310 bd d1 d8 bd 10 42 9c 3c 9a f8 20 bd 90 39 89 3c
       -0.105868794 0.01907447 -0.039299585 0.01675108
000320 ae 6d 07 3e 40 9c e0 3c 18 54 d1 3d 00 92 ce 3b
       0.13225433 0.027418256 0.10221118 0.0063040257
000330 3a 79 c5 3d 16 e0 a8 3d 50 1a 86 3d 10 92 94 bd
       0.09642263 0.08245866 0.065479875 -0.07254422
000340 44 b2 2b 3d c0 99 58 bb 00 c5 88 3b 00 d6 fc ba
       0.041918054 -0.0033050627 0.004173875 -0.0019289851
000350 b6 e8 a7 3d 00 18 1e 39 6a 7d 8a bd 32 07 bc 3d
       0.08198683 0.00015076995 -0.06762202 0.0918106
000360 25 a8 df bd 02 80 c6 3d 96 a5 4c bd 9e 4f 03 3e
       -0.10920743 0.09692384 -0.049962603 0.1282334
000370 76 9f 63 bd 66 24 a8 3d 68 ce 78 3d af c4 ce bd
       -0.055571996 0.082100675 0.06074372 -0.10096108
000380 7b 6b 86 bd 22 0b ba bd f7 56 ea bd 98 43 b2 bc
       -0.06563469 -0.09084155 -0.114423685 -0.021760747
000390 c6 72 c9 3d f4 83 ea 3d 10 74 0f bc 5e 29 8c bd
       0.098363444 0.11450949 -0.008755699 -0.06843828
0003a0 50 d2 fd 3d e8 37 71 bc 00 a2 45 bb ca c4 ca bd
       0.123936296 -0.014722802 -0.0030156374 -0.09900816
0003b0 34 26 99 3d 42 e1 04 3e 44 8b 4d 3d 66 50 92 bd
       0.0747799 0.12976554 0.050181642 -0.07144241
0003c0 98 71 ea bd e0 7c f6 3c d0 11 45 bd ea 54 9d 3d
       -0.114474475 0.030088842 -0.04811269 0.07682212
0003d0 30 8c af 3d f7 0e 0b be 80 81 78 3c b6 8f dc 3d
       0.085716605 -0.13579927 0.015167594 0.10769598
0003e0 14 aa 9c 3d ff 70 f1 bd 44 09 41 bd 5a aa 2e bd
       0.07649627 -0.117891304 -0.047127977 -0.04264293
0003f0 bc 5f 8e 3d 10 bc f3 3c 78 64 2c 3d fe 11 91 3d
       0.06951854 0.029752761 0.042088002 0.0708351

conv2.bias f4 [16]
000000 30 4e 0b 3c 02 05 07 3e 00 16 4e bc fa 83 81 3d
       0.008502528 0.13185504 -0.012578487 0.06324001
000010 91 80 b9 bd e2 3d 3f bd 80 2f f0 3a 60 cb ff 3c
       -0.09057725 -0.046689875 0.0018324703 0.031224906
000020 71 b8 80 bd 4a 7d 79 bd e0 27 fa 3c 94 ca d7 3d
       -0.062851794 -0.0609105 0.030536592 0.105366856
000030 1c 5c 05 3d ac 73 d2 bd f0 71 2b 3c 16 8b 8c 3d
       0.032558545 -0.10275969 0.010464177 0.06862466

fc1.weight f4 [120, 400]
000000 0c 73 34 bc ed 33 ec bc 50 83 92 bb 6c 12 60 3c
       -0.011013757 -0.028833354 -0.00447122 0.013676267
000010 2e 4c 1f bd a0 5f 52 bc 8e fd e2 3c 68 fa 64 bc
       -0.03889101 -0.012840182 0.027708795 -0.013975717
000020 c0 b1 19 bc b8 62 11 bc 70 b0 87 bc ef 0a 06 3d
       -0.009380758 -0.008873634 -0.016563624 0.03272527
000030 b9 97 0f 3d 50 89 04 bd e7 83 30 bd 95 4c 1b bd
       0.035056803 -0.032357514 -0.043094542 -0.03791483
000040 3d 93 40 3d be 83 b2 3c 30 cf 28 bd f8 f8 47 bc
       0.047015417 0.021791335 -0.041213214 -0.012205355
000050 20 f6 44 bb c2 d2 87 3c a0 f0 fd bc c0 cb b5 3a
       -0.0030053928 0.01657999 -0.030998528 0.0013869926
000060 0a 07 19 bd 0b d7 48 3d 43 92 33 bd 98 eb f9 bb
       -0.03736023 0.049033206 -0.043840658 -0.007626962
000070 fb 5c 45 bd 30 30 88 3b 16 f3 0b bd ab 47 2f bd
       -0.048184376 0.004156135 -0.03416737 -0.042792957
000080 8e 21 f8 3c 79 47 44 3d 1a 4f 93 bc 5f f1 43 bd
       0.030289438 0.047919724 -0.017982055 -0.04783761
000090 80 fd ba bc 80 fe 8e 39 30 a2 82 bb e8 69 cb bb
       -0.022825956 0.00027273968 -0.0039866194 -0.0062076934
0000a0 20 64 73 bb d0 d8 34 3b d6 54 fc 3c 92 9a a3 3c
       -0.0037138537 0.002759505 0.030802172 0.019971166
0000b0 12 42 a4 3c 96 c2 08 bd a0 ae ec 3a cb 6d 14 bd
       0.020051036 -0.033388697 0.0018057413 -0.03623752
0000c0 cc c5 04 3c 44 63 77 3c 43 c0 e4 bc 00 89 ff 39
       0.008103799 0.01509935 -0.027923709 0.00048739463
0000d0 a0 8d e9 ba b5 df 2b 3d 2e 4e b7 3c 69 70 0b 3d
       -0.0017818697 0.04196139 0.022376146 0.03404275
0000e0 00 66 46 bb 25 e8 1e bd 8a b3 10 bd 71 a4 41 3d
       -0.00302732 -0.03879561 -0.03532747 0.047275964
0000f0 ea 12 0d bd 82 49 8e 3c 4e 77 ce 3c 4b ca 3a bd
       -0.034441866 0.017369036 0.025203373 -0.045603078
000100 b2 ce b7 3c 6f 35 0b 3d 00 00 bb 35 ba 6b aa bc
       0.022437427 0.033986505 1.3932586e-06 -0.020803321
000110 18 fb ff 3b 06 6d c0 3c 00 4d c6 bb c2 90 b9 3c
       0.007811915 0.023489486 -0.0060516596 0.022652034
000120 6e c3 03 bd d8 8f fe 3b d0 a0 cd 3b fa dd 08 bd
       -0.0321688 0.0077686124 0.006275274 -0.03341482
000130 ba 11 f1 3c 44 9f 7d 3c 00 fb 99 bc 56 8d 1f bd
       0.029427398 0.015479866 -0.018796444 -0.038953148
000140 44 36 67 3c 0c 80 59 3c 7d 32 41 bd 44 dd 8f bc
       0.014112059 0.013275158 -0.04716729 -0.017561562
000150 da a3 d6 3c 32 30 a3 3c a0 ed 07 bb d4 0c 52 bc
       0.026201177 0.019920442 -0.0020741 -0.012820441
000160 ac 32 0c bc 70 23 88 bc ea 01 ca bc 37 d2 d0 bc
       -0.008557003 -0.01661846 -0.024659116 -0.025490863
000170 0c af 52 bc 5d 40 a6 bc 73 f2 ea bc 40 ee 48 3c
       -0.012859117 -0.020294363 -0.028680062 0.0122638345
000180 72 ac 96 3c a3 14 a4 bc a9 ed 4a 3d ad 35 30 bd
       0.018392775 -0.020029372 0.049543057 -0.04301994
000190 7a 0f ff 3c bf be 1b 3d 64 56 07 bd b6 8a 93 bc
       0.03113531 0.038023707 -0.033041373 -0.018010478
0001a0 b4 3b 28 bc 80 56 93 39 55 10 4b bd 08 54 24 bc
       -0.010268141 0.00028102472 -0.049576122 -0.0100298
0001b0 7f 0e 33 bd 28 11 f5 bb 00 6d 22 3c 5b c8 45 bd
       -0.043714996 -0.007478852 0.009913683 -0.048286777
0001c0 00 00 e1 3b e3 b1 29 bd 38 de 0d bc 94 43 63 3c
       0.006866455 -0.04142941 -0.008658938 0.013871092
0001d0 63 cc ae bc 78 bd 18 bc e3 19 1c bd e8 37 bb 3b
       -0.021337694 -0.009322517 -0.038110625 0.0057134517
0001e0 42 8d a8 3c 18 4b ac bb 61 3f 29 3d 97 6f 25 3d
       0.02057517 -0.0052579753 0.04132021 0.040389623
0001f0 92 75 36 bd 21 89 34 3d 61 05 33 3d 74 0b 78 3c
       -0.044545718 0.04407609 0.0437063 0.015139449
000200 2e 5b e5 3c e0 98 52 bb e2 f3 cc 3c 60 ac 53 bb
       0.02799758 -0.0032134578 0.025018636 -0.0032298788
000210 80 af 6b 3a 0a 43 86 3c a7 b7 2a 3d a9 b7 00 3d
       0.000899069 0.016389389 0.04167905 0.031425152
000220 e4 c0 4f 3c 55 eb 0e 3d b2 7e a6 3c 78 7d 29 bd
       0.012680266 0.0348924 0.020324085 -0.041379422
000230 00 b4 b3 38 46 58 94 bc fa e7 ec bc 26 0c 2b bd
       8.568913e-05 -0.018108498 -0.028919209 -0.041759633
000240 53 52 0d bd 78 3d 1c bd ec 75 5a 3c 9a f3 89 bc
       -0.03450234 -0.03814456 0.013333779 -0.016839791
000250 c9 44 36 3d 00 30 08 39 28 bc c4 3b 98 5e 20 3c
       0.044499192 0.00012987852 0.0060038753 0.009788178
000260 e0 a6 08 3c a0 e6 df bc 91 e8 02 3d dc af 50 3c
       0.008340567 -0.02733165 0.031960074 0.012737241
000270 18 74 bb bb 42 02 a0 3c 82 ac ff 3c 20 5c 47 bd
       -0.0057206266 0.019532327 0.031210188 -0.04867184
000280 47 b2 ac bc 1f 36 33 bd 86 c2 9d 3c a4 f7 92 bc
       -0.021081103 -0.043752786 0.019257795 -0.01794035
000290 00 7c 68 3a 09 23 1b 3d c5 bb 47 3d 10 a0 27 bd
       0.0008868575 0.03787521 0.048763055 -0.040924132
0002a0 c8 b4 44 3c b1 cd 4a 3d 57 c1 2f 3d 8a 74 8e 3c
       0.012005992 0.04951257 0.042908993 0.017389555
0002b0 20 fd bc bc 71 18 41 3d a7 c0 be bc 12 a0 04 bd
       -0.023069918 0.04714245 -0.023285223 -0.032379217
0002c0 8e 90 ff 3c e0 0b 37 bd 6f 84 48 3d 4a 02 f7 bc
       0.031196859 -0.04468906 0.048954424 -0.030152459
0002d0 73 32 44 bd 8b 01 26 bd 78 f1 02 3c 5d 7f 2d bd
       -0.047899675 -0.040528815 0.007992141 -0.04235779
0002e0 83 23 ec bc c2 39 fb 3c 33 6e 10 bd 00 df 02 3b
       -0.028825527 0.03066719 -0.035261344 0.0019969344
0002f0 03 20 28 bd 1a 95 e6 bc 30 d6 8a 3b 94 70 90 bc
       -0.041046154 -0.028147269 0.004236959 -0.017631806
000300 75 8d 29 bd 9a 6e 3b bd 33 18 9f bc 8e 3b e9 3c
       -0.04139467 -0.045759775 -0.019420719 0.02847078
000310 a9 7c 20 3d f4 ac 69 3c b2 08 96 3c ba 5e bc 3c
       0.039181385 0.014262427 0.018314693 0.022994388
000320 95 ca 2f 3d 20 7b 04 3b 00 76 ac bc a0 3f c6 3a
       0.042917807 0.002021499 -0.02105236 0.0015125163
000330 4a 92 cb bc e8 28 20 3c 0a 2d 90 bc 91 3c 13 3d
       -0.02485003 0.009775378 -0.017599601 0.035946433
000340 d1 03 47 3d 53 22 f5 bc 84 85 75 3c b9 91 23 3d
       0.048587624 -0.029923594 0.014985446 0.039933894
000350 d9 66 2b 3d 50 4c 37 3b 40 c3 9b 3b c0 ea 9e ba
       0.04184613 0.002796907 0.0047535 -0.0012124404
000360 73 c9 fe bc 9b d7 0d 3d 68 6c 8c bb 28 e7 48 bd
       -0.031101918 0.034629446 -0.004285384 -0.049048573
000370 d0 3c c6 bb 6e be d0 3c 91 65 45 3d b9 41 2f 3d
       -0.00604973 0.025481429 0.048192564 0.042787287
000380 0a e6 c3 bc 7a fe a2 bc 57 be d9 bc 9a 02 18 bd
       -0.023913402 -0.019896735 -0.026580019 -0.037111856
000390 87 d2 03 3d a0 55 aa ba 20 14 e7 bc 50 eb 69 3b
       0.032183196 -0.0012995489 -0.028207839 0.0035693236
0003a0 96 4e 83 bc 95 a2 07 bd 62 5e 31 bd a0 e6 eb 3a
       -0.016028684 -0.033114035 -0.0433029 0.0017997809
0003b0 9a 9c 40 bd bb c9 1f 3d 0d 18 f5 bc 20 ac 23 bc
       -0.047024347 0.039010745 -0.029918695 -0.009989768
0003c0 72 36 9f 3c 08 59 30 bd 41 fa 06 3d 5e 71 d1 3c
       0.019435141 -0.043053657 0.032953504 0.025566753
0003d0 a0 8f 69 bb 56 4e e6 3c 56 75 d6 3c d8 a2 8f 3b
       -0.0035638586 0.028113525 0.026178997 0.004383426
0003e0 20 b2 3f bb f8 2e 29 bd 32 10 e7 3c a8 e3 b8 3b
       -0.0029250458 -0.04130456 0.028205965 0.005642373
0003f0 2a b6 d3 bc 25 d8 29 bd bf 87 04 3d c3 58 41 3d
       -0.025843699 -0.041465897 0.03235602 0.04720379

fc1.bias f4 [120]
000000 12 b9 fb 3c 38 a6 43 3c 30 20 33 3b 68 e1 1d 3c
       0.030727897 0.011941485 0.0027332418 0.009636261
000010 19 01 29 3d a0 08 8d bc 30 50 eb bb d8 98 bd 3b
       0.041260812 -0.017216027 -0.00718119 0.0057860427
000020 d6 d2 ba 3c d0 16 56 3b 8e cd ac 3c 20 3b 16 bb
       0.022805613 0.0032667406 0.02109411 -0.0022923425
000030 a2 f4 8e 3c 50 b5 e5 bc 60 f8 6a 3b 12 c8 4b bd
       0.017450634 -0.028040558 0.003585361 -0.04975135
000040 0b bf 33 bd d8 01 27 bc d0 24 1b 3b 29 b9 12 3d
       -0.043883365 -0.010193311 0.0023673065 0.035821114
000050 20 79 fd bc 50 d8 3b bb 1e eb dc 3c 50 61 07 bd
       -0.030941546 -0.0028662868 0.026967581 -0.03305179
000060 0b b8 36 bd 00 cb d4 bc a4 0d 73 3c 80 1b 1d bd
       -0.04460911 -0.025975704 0.014834795 -0.038356304
000070 13 7b d3 bc 86 59 00 bd 58 c1 35 3c d5 f5 21 3d
       -0.025815522 -0.031335376 0.01109346 0.039541084
000080 32 e5 98 3c f5 84 23 bd 6d a2 f5 bc bc 8d 4e 3c
       0.018663976 -0.03992172 -0.029984677 0.012607034
000090 00 ce 67 3a 9e 39 0b bd 6a 29 8b bc 0f 38 45 3d
       0.0008842647 -0.033990495 -0.016987521 0.048149165
0000a0 90 ba ed 3b 40 f2 3a bd a0 9f 53 bc 97 ba eb bc
       0.007254906 -0.045641184 -0.012916476 -0.028775496
0000b0 0f 8b 34 3d 0d a4 18 bd 24 fb 64 3c 18 f5 0e bd
       0.04407793 -0.037265826 0.013975892 -0.03490171
0000c0 d5 a5 09 3d 5d 3c ac bc 32 92 98 3c 98 c3 bf 3b
       0.033605415 -0.021024877 0.018624399 0.005852174
0000d0 a0 82 bf ba 6d 34 a6 bc 80 86 81 bb 86 a7 81 3c
       -0.0014611073 -0.02028867 -0.003952801 0.015826952
0000e0 87 43 e9 bc 1a 1d cd bc af 8e 12 3d a7 77 42 bd
       -0.028474582 -0.02503829 0.035780605 -0.04747739
0000f0 60 b2 30 bb d9 04 3d 3d 4a a7 f7 bc 00 3c 4a 3a
       -0.0026961789 0.0461472 -0.030231137 0.0007714629
000100 00 1b 0e 3b ba ff 27 bd 68 15 a9 3b 4c 5e 01 bd
       0.0021683574 -0.041015364 0.0051600225 -0.03158407
000110 ec 3b 0d 3c 00 a8 60 bc 18 ba 04 bd 5d 2a c2 bc
       0.0086202435 -0.013711929 -0.032404035 -0.023701841
000120 e0 bf 25 bd 57 91 9d bc 54 45 56 bc d4 e9 6c bc
       -0.04046619 -0.019234343 -0.013078053 -0.014460046
000130 a3 ca bd bc 56 a9 d9 3c db e2 26 3d 1d 3e dc bc
       -0.023167914 0.026570003 0.04074369 -0.026885087
000140 fc 75 04 bd 18 54 f3 3b d2 bd f5 3c cb 03 33 3d
       -0.03233908 0.0074257962 0.02999774 0.04370479
000150 f7 af 2d 3d 26 9d 0c bd dd b0 eb bc 80 75 ba bc
       0.04240414 -0.034329556 -0.028770858 -0.022761106
000160 4d 80 b1 bc 98 c4 be 3b 00 16 eb 3b 02 af e7 3c
       -0.021667624 0.0058217756 0.0071742535 0.028281692
000170 18 58 24 bd 40 88 ce 3a 00 60 75 3a 2c 21 2f 3c
       -0.040123075 0.0015757158 0.00093603134 0.010689061
000180 a1 47 48 3d b3 7c 42 3d 4a cc 98 3c a2 cd d3 3c
       0.048896436 0.047482204 0.0186521 0.02585489
000190 a2 d7 87 3c 50 f6 43 bd e8 ff ff 3b ce 16 e9 3c
       0.016582314 -0.047842324 0.007812489 0.028453257
0001a0 c8 26 45 bd 51 68 1e 3d d2 d4 0d bd 50 d1 4e 3b
       -0.048132688 0.038673703 -0.03462679 0.0031557865
0001b0 80 ea f6 3b 9e d5 c9 3c e3 0c 49 3d 4d 4c b7 bc
       0.007535279 0.024637993 0.049084555 -0.02237525
0001c0 c8 80 24 3c 54 b4 93 bc 84 b9 83 bc ce a0 1f bd
       0.0100404695 -0.018030323 -0.016079672 -0.038971715
0001d0 ac e7 32 bc 6a 5e 8e bc ac cb 38 bc f2 e8 b1 3c
       -0.010919493 -0.017379005 -0.011279028 0.021717522

fc2.weight f4 [84, 120]
000000 fc 2c 0f 3d 5c f3 9e bc c4 81 0e 3d 20 bf af bb
       0.03495501 -0.019403152 0.034791723 -0.00536336
000010 f6 1d 9e 3d b2 6b a8 3d 68 0f 9e 3d 48 1d 7d 3d
       0.07720558 0.08223666 0.07717782 0.061795503
000020 40 bf 73 3d 3e 52 4e bd 38 d8 4a 3d 60 6c 13 3d
       0.059508562 -0.0503714 0.04952261 0.035992026
000030 c0 9d 08 bb d0 40 50 bd 08 48 19 bc f2 1e a6 3d
       -0.002084598 -0.05084306 -0.0093555525 0.08111371
000040 8c e3 94 3d 84 1f dd 3c 68 9d 12 3c 00 38 ce ba
       0.072699636 0.026992567 0.008948661 -0.0015733242
000050 00 74 60 39 32 0e 9f bd 52 af 99 3d c0 28 46 bb
       0.00021405518 -0.077663794 0.07504143 -0.0030236691
000060 a0 44 5a bb 44 f2 7d 3d 90 50 2c bc f8 ae f7 3c
       -0.0033305064 0.06199862 -0.0105172545 0.030234799
000070 1a 84 ae bd 70 17 a8 3d e0 20 bc 3c d8 b1 52 bd
       -0.0852129 0.08207595 0.022964895 -0.051439136
000080 c8 a9 99 3c a8 21 f6 bc 20 1c 8d 3d f0 fe b8 bc
       0.018757716 -0.030045345 0.0689013 -0.022582501
000090 0f 0c 17 bd d0 58 9b 3d e0 26 10 bd 20 e6 8f 3d
       -0.036876734 0.07585299 -0.035193324 0.07026315
0000a0 4b ef 83 bd 20 33 9b bc fe 5d 09 3d ff 49 28 bd
       -0.06442126 -0.018945277 0.033536904 -0.041086193
0000b0 00 f3 13 3c f0 29 8f bd 0c dc b3 bd 2b 80 42 bd
       0.009030104 -0.06990421 -0.08782205 -0.04748551
0000c0 2c ea 58 3d f4 42 55 3d e0 6b 7d bc a0 f4 99 bc
       0.0529577 0.052065805 -0.015467614 -0.018793404
0000d0 f8 60 a1 3d 63 e9 14 bd 20 c2 d6 3c 90 df e2 3b
       0.078798234 -0.036355387 0.026215613 0.0069236234
0000e0 de 05 82 3d fa 84 b7 3d 58 28 3d 3d 40 6c ef 3b
       0.06348775 0.0896091 0.046181053 0.0073066056
0000f0 b4 a6 58 bd cb 0c 15 bd d0 f5 53 bd 40 54 a9 ba
       -0.052893355 -0.036389153 -0.051748097 -0.0012918785
000100 74 c9 c5 3c b8 6f 80 3d 04 95 0a bd 0c 2a a1 bc
       0.024143912 0.06271309 -0.03383352 -0.01967337
000110 d2 54 7b bd e2 af f6 bc e0 60 79 3b 77 10 41 bd
       -0.061360188 -0.030113164 0.0038052127 -0.047134843
000120 e8 b1 85 3d 88 09 72 bc 34 27 ab 3d 69 56 9f bd
       0.065280735 -0.01477278 0.08357087 -0.07780153
000130 98 5b bf bc 4c 91 2e 3d 58 2e 6a 3c 3c 50 c4 bc
       -0.023359105 0.042619035 0.014293276 -0.02396404
000140 fc ce 66 bd 80 04 8c 3c 7f 3b 70 bd e5 4a 6e bd
       -0.05634974 0.01709199 -0.05865049 -0.058176894
000150 1c 91 a5 3d 43 ba 15 bd e0 0a dd 3c e7 5b 3a bd
       0.08084318 -0.036554586 0.026982725 -0.0454978
000160 d8 a3 88 bd b8 76 84 bc bb 1f 1e bd 3d 30 24 bd
       -0.06671876 -0.01616989 -0.03860448 -0.040085066
000170 80 a7 38 ba 84 4a 35 3d 87 1d 98 bd 78 cf 6b 3c
       -0.00070440024 0.044260517 -0.07427507 0.014392726
000180 7b cb 3b bd 8f 78 8a bd 49 45 73 bd 5b 1d ad bd
       -0.04584835 -0.06761276 -0.059392247 -0.08452865
000190 58 bd 0a 3d 96 2b 59 bd 6a 0b ac 3d 70 3d d1 3c
       0.03387198 -0.053020082 0.084006146 0.025541991
0001a0 20 9e 56 3d c5 58 a9 bd f8 52 62 bc 55 36 8b bd
       0.052396894 -0.082688846 -0.013813727 -0.067974724
0001b0 5c aa 6a 3d ad 03 9a bd 88 6d cb bc c6 cf 7f bd
       0.057291374 -0.07520232 -0.024832502 -0.062454008
0001c0 30 02 34 3c b4 a7 54 3d 90 18 16 bc b0 39 c2 3b
       0.01098685 0.051917747 -0.00916113 0.005927287
0001d0 de 63 b0 3d e9 e1 5a bd 00 26 58 ba 44 f8 7c 3d
       0.08612798 -0.0534381 -0.00082454085 0.061760202
0001e0 5c 1c b6 3c bc ee a6 3c bb 7b 1f bd f8 5a 5f 3d
       0.02223032 0.02037751 -0.038936358 0.054530114
0001f0 34 76 d0 3c 04 a5 83 3d a0 fa 64 3d dd ed 04 bd
       0.025446989 0.064279586 0.055903077 -0.032453407
000200 a0 a3 1d bd 7a 57 b1 bd da a5 4e bd de 04 b2 3d
       -0.038486123 -0.08659263 -0.050451137 0.086923346
000210 18 c5 c0 bc 1d 7d 78 bd 04 d6 ab 3d 90 8c dc bc
       -0.023531482 -0.060666192 0.083904296 -0.026922494
000220 18 94 4c 3d d4 2b 3e bd c0 40 20 bc 12 bd b8 bd
       0.04994592 -0.046428517 -0.009781063 -0.09020437
000230 c8 da 41 3d ee ab 0a bd d4 89 ad bc be bc 13 bd
       0.047327787 -0.03385537 -0.021183886 -0.03606867
000240 a8 e6 31 3d 0a ce b2 3d 7f 3a 43 bd fd 7b a1 bd
       0.04343286 0.08730705 -0.047663208 -0.07884977
000250 58 c5 1f 3d a1 60 3f bd 44 46 96 3d bf f9 3d bd
       0.03900656 -0.046723012 0.07337621 -0.046380755
000260 68 32 48 3d 71 b1 42 bd 18 6b b4 3c 3d ed 36 bd
       0.048876196 -0.047532503 0.022023723 -0.04465984
000270 7e 05 f7 bc 84 f2 a9 bc 88 c8 6e bd 6c 4a c0 bc
       -0.030153986 -0.020745523 -0.05829671 -0.023472987
000280 ec 6a 89 bc e8 71 9b 3d 18 ea fd bc 90 e5 b3 3c
       -0.016774617 0.07590085 -0.030995414 0.02196005
000290 24 e6 9f bd 24 db 76 3d 91 61 4a bd 00 45 5c 3c
       -0.07807568 0.060267583 -0.049409453 0.013444185
0002a0 d4 20 a5 3d 93 56 3e bd 48 0d 8c 3c 80 9b c1 bb
       0.08062902 -0.046469282 0.017096177 -0.0059084296
0002b0 60 27 97 bd 51 2f a3 bd ae f0 af bd b0 46 d5 bc
       -0.07380557 -0.07968009 -0.08590828 -0.026034683
0002c0 18 f1 d7 3c 20 97 c9 bb d8 29 6a 3d f3 1d 52 bd
       0.02636008 -0.0061520487 0.05716881 -0.051298093
0002d0 50 33 83 bc ea bc 60 bd 2a 50 63 bd 11 cc 2e bd
       -0.016015679 -0.054867662 -0.055496372 -0.04267508
0002e0 98 98 61 3c 40 38 ef 3b 48 5c 33 3c 12 49 92 bd
       0.013769291 0.0073004067 0.0109472945 -0.07142843
0002f0 90 d8 b3 3b cc ce 92 3d a2 cd b7 3d 6c ae b7 bc
       0.0054884627 0.071683496 0.08974768 -0.022422038
000300 ed ff aa bd 88 2a b4 3d 8c fa 3b 3d 05 78 0d bd
       -0.08349595 0.08797175 0.045893237 -0.034538288
000310 7c 7b 1d 3d d3 76 31 bd 8a e5 b8 3d ec ae 42 3d
       0.038447842 -0.04332621 0.09028156 0.0475301
000320 50 9c 75 bc e0 62 43 3d 68 7d dd bc 00 d1 76 bc
       -0.014990881 0.047701716 -0.027037337 -0.015064478
000330 00 3c 7a 3d c4 0d 21 3d 0b 5c 80 bd 80 53 1d 3d
       0.061092377 0.03931977 -0.06267556 0.03840971
000340 ec f5 15 3d 34 58 a2 3d 7c ee b5 3d 50 5c c8 3b
       0.036611483 0.0792698 0.08883378 0.00611452
000350 c0 5d 46 3d c0 8e 88 bb b0 81 8e bb 06 79 89 3d
       0.04842925 -0.0041674078 -0.004348956 0.067125365
000360 5c eb 14 bd 80 eb a0 3d 82 f5 93 3d c0 39 c5 bc
       -0.03635727 0.07857418 0.07224561 -0.024075389
000370 5e 04 ba bd da c5 a8 3d b8 88 21 bc 80 e3 51 bc
       -0.09082864 0.08240862 -0.009859256 -0.012810588
000380 38 03 61 3c 90 ea 7f bc fb 4c 71 bd 48 10 b7 bd
       0.013733678 -0.015619889 -0.058911305 -0.08938652
000390 1b bd 43 bd 68 18 06 bc d8 95 4e 3d 50 16 48 3d
       -0.047787767 -0.00818453 0.05043587 0.048849404
0003a0 7c 25 a1 bc 08 de 0d 3c 45 12 54 bd 50 85 5d 3c
       -0.019671194 0.008658893 -0.051775236 0.013520554
0003b0 a6 e8 a5 bd 98 f0 93 3c 84 c7 9f bc e8 7b c5 3c
       -0.08101015 0.01805906 -0.019504316 0.024106935
0003c0 0b 92 2b bd 68 78 8c 3d 80 61 2f bc 1e 0e 0a 3d
       -0.041887324 0.06858903 -0.010704398 0.03370487
0003d0 23 d9 5e bd 10 11 70 3d 41 78 a0 bd 34 1d 82 bd
       -0.054406296 0.058610022 -0.078354366 -0.06353226
0003e0 88 e0 39 bc f8 8e 96 bc d0 77 a9 3b 22 92 04 bd
       -0.011345036 -0.01837872 0.0051717535 -0.032365926
0003f0 18 cd f0 3c 44 1c c2 3c f0 eb 16 bd 27 4a 9d bd
       0.029394671 0.023695119 -0.0368461 -0.07680159

fc2.bias f4 [84]
000000 c8 7e 78 bd 3b b0 a9 bd 84 5a ad 3d 8c 4c 39 3d
       -0.060667783 -0.082855664 0.0846453 0.045239016
000010 64 c7 95 bd 04 3f 99 bc fc fb 91 3d 55 76 4d bd
       -0.07313421 -0.018706806 0.0712814 -0.05016168
000020 0a c7 a1 3d bc 0f 8f 3c b0 27 05 3c 80 de b7 3c
       0.07899292 0.017463557 0.008127138 0.022444963
000030 80 34 75 3d 54 d8 df bc a8 19 95 3d 78 6d 6c 3d
       0.05986452 -0.027324833 0.07280284 0.057721585
000040 12 34 99 bd f6 8d 41 bd b4 f9 84 bd 40 22 a2 3c
       -0.07480635 -0.047254525 -0.064929396 0.019791722
000050 54 df 9e 3d 54 da 3a 3d 56 c4 93 3d db e4 22 bd
       0.0775744 0.04561837 0.072151825 -0.039769035
000060 0c 6d a5 bd c0 31 c6 ba 14 f8 a9 bc 01 c4 33 bd
       -0.0807744 -0.0015121028 -0.020748176 -0.043888096
000070 3c 67 ca bc 50 45 38 3d 88 77 3a 3d f0 34 ff 3c
       -0.02470743 0.044987977 0.04552415 0.031153172
000080 0c 3a 33 3d 2c cd 1b 3d 98 c1 20 bc bc 6b b0 bc
       0.04375653 0.038037464 -0.009811781 -0.021535747
000090 eb ec 00 bd 24 12 2a 3d 5c 65 f2 3c 9c 82 ee 3c
       -0.031475943 0.041521206 0.029589348 0.029115014
0000a0 3d 1c 10 bd f7 28 9b bd 96 84 ab 3d 06 5e 82 3d
       -0.03518318 -0.07576173 0.08374898 0.0636559
0000b0 dc c2 84 3d 54 27 80 bc e8 fa 6a bd 8e 8d a4 3d
       0.06482479 -0.015643753 -0.05736819 0.08034812
0000c0 68 71 22 3d cc a4 c1 3c f0 87 79 3d e6 5d 92 bd
       0.039658934 0.023638152 0.060920656 -0.07146816
0000d0 b8 b4 a5 3d e0 72 c2 bb 0c 44 9b 3d 47 4c 33 bd
       0.0809111 -0.0059341043 0.07581338 -0.043773916
0000e0 20 74 44 3b 3c 55 e2 3c f8 a1 29 bc a0 68 80 3c
       0.0029976442 0.027628534 -0.010353558 0.01567489
0000f0 38 fc 73 bc 8c 62 27 3d 4e 6d ba 3d 7c fd 4f 3d
       -0.014891677 0.040865466 0.091028795 0.05077885
000100 04 e2 7f 3d 5c 5e 7e bd f0 94 2e 3c 24 e4 b2 3d
       0.062471405 -0.062101707 0.010655627 0.087349206
000110 28 98 35 bd 08 08 53 bc 80 3d 34 3d f4 85 82 3d
       -0.04433456 -0.012880333 0.044003963 0.06373206
000120 c8 6c 03 3d cb a3 2a bd aa 42 a2 bd f4 d8 f1 3c
       0.032086164 -0.04166011 -0.079228714 0.029522397
000130 b0 b7 91 3c 30 b7 a6 bd 98 61 b4 3d 1c 41 30 3d
       0.017787784 -0.08140409 0.08807677 0.043030843
000140 e6 88 9f 3d 39 7b 13 bd 7a 67 00 bd 2d 0d 68 bd
       0.07789783 -0.036006186 -0.031348683 -0.05665319

fc3.weight f4 [26, 84]
000000 98 f2 7b bc da c7 79 3d ea d8 d8 bd 4a 0e 01 3d
       -0.015377663 0.06098161 -0.10588248 0.031507768
000010 aa 54 d9 bd f5 11 94 3d 09 ef 8f 3d 53 a4 a6 bd
       -0.106118515 0.072299875 0.07028014 -0.08136811
000020 23 a2 ae 3d f0 e7 fc bc 96 ce 32 bd d4 3f e5 3c
       0.08527019 -0.030872315 -0.043654047 0.027984537
000030 0f 68 ce 3d 51 5e 89 3d 94 1e 5e bd d5 9c 97 3d
       0.10078441 0.067074426 -0.05422838 0.0740296
000040 e0 1f 33 3b 04 cd 36 bd ad e2 d9 3d 7a 5e 58 3d
       0.0027332231 -0.044629112 0.10638938 0.052824475
000050 16 66 b7 bd a2 df 6b bd 1c b5 cb 3c dc 00 20 bd
       -0.08955018 -0.05758632 0.024866633 -0.03906332
000060 29 b9 c3 3d 86 3d 32 bd 08 97 b6 bd b4 60 8b bd
       0.09556801 -0.043515705 -0.08915526 -0.06805554
000070 5c 36 e4 bc 20 5d 9f bd b6 30 04 3d b0 bc 9a bc
       -0.027857952 -0.07781434 0.032273017 -0.018888801
000080 2c 5e 8b 3c 68 76 0b 3c c8 d2 44 bc 0d da 9c 3d
       0.017012678 0.008512117 -0.012013145 0.076587774
000090 18 80 3b bd 04 16 85 3c 8e 04 c2 bd f9 ee 9e bd
       -0.045776457 0.01624585 -0.09473525 -0.07760424
0000a0 1f d1 b4 3d a1 95 bd 3d a2 7d d1 bd cc 79 81 bc
       0.08828949 0.09257055 -0.10229041 -0.015805148
0000b0 84 b4 8e bc e1 d7 b0 bd fc ea aa bc 76 b0 77 bd
       -0.017420061 -0.08634926 -0.020864002 -0.06047102
0000c0 50 58 1b bc 60 43 e4 bc 58 33 82 bc 32 bd 1f 3d
       -0.009481505 -0.027864158 -0.015893623 0.03899879
0000d0 c5 56 dc 3d bb 03 9c 3d 42 96 7c bd 40 b7 d9 3b
       0.107587375 0.07617899 -0.061666735 0.0066441596
0000e0 c0 85 d5 bc 76 44 60 bd 31 52 92 3d ea c7 48 bd
       -0.026064754 -0.05475279 0.07144583 -0.049018778
0000f0 79 54 bd bd 20 9c 72 3c fa 6f 36 bd 84 cf b0 3c
       -0.092446275 0.014807731 -0.044540383 0.021583326
000100 44 ce 92 bd 88 9c 10 bd bd 63 9f 3d 62 94 3c 3d
       -0.07168248 -0.03530553 0.077826954 0.046039946
000110 40 a9 89 ba da cb 45 3d 6c 35 55 bd 00 eb 08 bd
       -0.0010502711 0.04829011 -0.0520529 -0.03342724
000120 fa ed 96 bd 32 c0 7b 3d f6 6b 7e 3d c6 f0 ad bd
       -0.07369609 0.06146259 0.06211468 -0.084931895
000130 2f d3 bb 3d 02 67 3d bd 97 aa 70 bd 60 0c d2 bb
       0.091711394 -0.046240814 -0.058756437 -0.0064101666
000140 ac b8 9d 3c dd d7 85 3d 2e 8e 3a 3d 50 83 c8 3b
       0.019253097 0.06535313 0.04554575 0.0061191693
000150 8d a3 cf 3d 55 af d3 3d 2b d2 9b 3d 52 50 bb bd
       0.10138617 0.10336176 0.07608446 -0.09146179
000160 f0 ed f5 3b 6d 8b 88 3d d8 f1 c6 bc 64 13 b4 3c
       0.007505171 0.06667218 -0.024285242 0.021981902
000170 7a 5e 0d 3d 41 b1 7a bd d9 28 ba 3d 0a 6d 30 3d
       0.034513928 -0.0612042 0.09089822 0.043072738
000180 48 ca 62 3c 1a 39 2c 3d de bc 57 3d a0 9e 5e 3b
       0.013842173 0.042046644 0.052670352 0.003396906
000190 58 eb 2e 3c 60 95 b9 bd 69 52 82 3d 1e 14 4d 3d
       0.0106762275 -0.09061694 0.06363375 0.050068013
0001a0 ee cd b2 bd 28 01 11 bd 1b af 83 bd f1 69 9b 3d
       -0.08730684 -0.035401493 -0.06429883 0.07588566
0001b0 37 0c d2 3d 07 e5 c5 3d f0 3d 94 bb b7 a3 8b 3d
       0.10256236 0.09662824 -0.004523985 0.068183355
0001c0 dc 7e f5 bc 8e 30 63 3d ec 8e c7 3c 80 89 18 3c
       -0.029967718 0.055466227 0.024360143 0.009310126
0001d0 06 3c 81 bd 96 31 27 3d ad 42 c5 bd 76 50 17 3d
       -0.06310277 0.040818773 -0.09631858 0.036941968
0001e0 42 ad 98 bd 9c 57 b9 3c 30 9e 99 bd d8 87 80 3c
       -0.07454921 0.022624783 -0.07500875 0.015689775
0001f0 e0 16 33 3c 1e 32 92 bd d9 df b9 3d 7e a4 95 bd
       0.010930747 -0.07138465 0.09075899 -0.07306765
000200 ea 2e 3d 3d b9 19 93 3d 4b 21 da 3d 48 48 62 3c
       0.04618732 0.071826406 0.106508814 0.0138111785
000210 3c b6 b4 3c 18 8a bd bd eb 23 8d bd 8c 97 99 3c
       0.022059552 -0.09254855 -0.068916164 0.018749021
000220 44 3c 8f 3c 13 78 aa 3d e2 97 03 3d a6 eb 6f 3d
       0.017484792 0.083236836 0.03212727 0.05857434
000230 7e ca d3 bd 00 32 81 3a 19 f1 d3 3d 67 be dc bd
       -0.10341357 0.000985682 0.1034872 -0.10778504
000240 b2 a5 21 3d c4 ab 78 bd ec 7d 84 bd d0 cf 21 bc
       0.03946466 -0.060710683 -0.0646933 -0.0098762065
000250 67 65 cf 3d 70 47 7a 3c 63 b3 b9 3d 48 02 7d 3c
       0.10126763 0.015275821 0.090674184 0.015442438
000260 9f 60 6e bd 50 ba 92 3b 85 b4 dc 3d 88 83 4d bd
       -0.058197614 0.0044777766 0.10776619 -0.050174266
000270 e0 c1 94 bb 41 2f dc 3d d2 a6 8f bd 16 e5 40 3d
       -0.0045397133 0.107512005 -0.0701424 0.047093473
000280 42 28 01 3d 51 3d a1 3d 14 79 8f 3c d6 3c 13 3d
       0.031532533 0.07873023 0.01751379 0.03594669
000290 8c 6e a3 bd 8e 5a 0c bd d8 ad 20 bd be 58 45 bd
       -0.079800695 -0.034266047 -0.03922829 -0.048180334
0002a0 42 68 ce bd 72 43 1c 3d a6 4d dd bd 14 63 e7 bc
       -0.10078479 0.03815026 -0.10805826 -0.028245486
0002b0 81 2a 83 3d de 3a 2f 3d 5b a2 b9 3d 35 77 83 3d
       0.06404591 0.04278075 0.0906417 0.06419221
0002c0 1e e8 23 3d 44 8d ad bd 4a 46 82 bd 03 80 8f 3d
       0.040016286 -0.0847421 -0.06361063 0.07006838
0002d0 1c ce 35 bd 96 b0 a1 bd 0e e4 34 3d 40 99 4b 3c
       -0.044386014 -0.07895009 0.044162802 0.012426674
0002e0 26 03 03 bd 04 c6 ea 3c 4f b0 b6 3d 6f fd d7 bd
       -0.031985424 0.028658874 0.08920347 -0.105463855
0002f0 00 3c 83 ba b9 22 cc 3d 70 8d ad bc 0c c3 9d 3c
       -0.0010012388 0.0996756 -0.021185607 0.019258045
000300 76 6a 5e 3d c0 9d 24 3c 8d 8b dc 3d 80 ce bb 3b
       0.054300748 0.010047376 0.10768805 0.005731404
000310 0c 79 c9 bc 50 aa 76 3c 99 73 97 bd 37 dd b6 bd
       -0.024593852 0.015055254 -0.073950954 -0.08928912
000320 3c 7d 9d 3c 9a af 2d bd 72 2a cc bd 61 78 a5 3d
       0.019224755 -0.042403795 -0.09969033 0.08079601
000330 90 d2 ea bc 16 2a 4c 3d 60 82 81 bd 48 1f b0 bc
       -0.028664857 0.049844824 -0.06323695 -0.021499291
000340 a4 6f bd 3c 16 64 79 3d 50 07 d3 bd 4a 5a 3a bd
       0.023124523 0.060886465 -0.10304129 -0.045496263
000350 6f f5 87 bd 18 d0 82 bd 0e 07 99 bd b0 02 60 3c
       -0.066386096 -0.06387347 -0.07472049 0.013672516
000360 0c 4a 9e bd 20 d1 2f bc 9c 4f b8 3c 81 91 cb 3d
       -0.07728967 -0.010731012 0.022498898 0.09939862
000370 69 2c cf 3d a2 35 20 3d d4 70 f9 3c 1f 28 c3 3d
       0.101158924 0.03911365 0.030449308 0.09529137
000380 67 2c 46 bd 08 2b 48 bd 8d 3c ab bd 00 5d 90 bc
       -0.04838219 -0.048869163 -0.083611585 -0.01762247
000390 4a 5f 68 3d e0 5a 7f 3b a0 d7 3a 3c 00 1e e6 bb
       0.0567315 0.0038964078 0.011403948 -0.0070226192
0003a0 d8 a2 3c 3c 4c d5 a4 bd 5e bc 45 3d a1 71 bb 3d
       0.011513434 -0.08048496 0.048275344 0.09152532
0003b0 25 78 62 bd 98 92 27 3c f5 7a a4 bd fc bb 8d bc
       -0.05529036 0.010227822 -0.08031265 -0.017301552
0003c0 17 05 c7 3d 08 2a 2d bc 7e c1 bf bd 90 e1 96 3b
       0.09717768 -0.010569103 -0.093630776 0.004604526
0003d0 33 24 cd 3d 60 a1 15 3b 38 54 14 bc 07 3d 84 3d
       0.1001667 0.0022831783 -0.009053282 0.064569525
0003e0 ef af da 3d cc d8 00 bd 9c 56 8f bd b5 dc da bd
       0.10678088 -0.031456754 -0.06998941 -0.10686628
0003f0 25 d5 bf bd 1c bd 37 bd 44 9a 8f bc 8a 42 06 3d
       -0.09366826 -0.044858083 -0.017529614 0.0327783

fc3.bias f4 [26]
000000 f4 a6 cc 3c 94 bd 8a 3c 3b ff 4d bd 3a 39 2f bd
       0.024981953 0.016936101 -0.050292235 -0.042779185
000010 58 5f 96 bd 66 75 08 bd ee 9c 9e bd 80 96 37 3c
       -0.07342404 -0.033315085 -0.07744776 0.011205316
000020 b5 d8 a2 3d f6 31 5a 3d e8 bc 63 bc d2 05 2e bd
       0.0795149 0.053270303 -0.013900019 -0.04248602
000030 14 5f de bc da a0 83 bd c4 6b 65 bd ab 4a 87 3d
       -0.027144946 -0.064271644 -0.056010976 0.06606039
000040 9c 5b 19 bd 94 c5 89 3c 68 0b 97 bd 89 f0 d0 bd
       -0.03744088 0.016817845 -0.073752224 -0.102021284
000050 e8 8f c1 bc 4e 3c b7 bd d1 cf c5 bd 3d 7d 81 3d
       -0.02362819 -0.08947049 -0.096587785 0.063227154
000060 9f 40 ac 3d e8 b8 76 bd
       0.08410763 -0.060234934
